…
2020-10-22 08:48:46.130429: W tensorflow/stream_executor/gpu/asm_compiler.cc:81] Running ptxas --version returned 256
2020-10-22 08:48:46.171646: W tensorflow/stream_executor/gpu/redzone_allocator.cc:314] Internal: ptxas exited with non-zero error code 256, output: 
Relying on driver to perform ptx compilation. 
Modify $PATH to customize ptxas location.
This message will be only logged once.
Model: "sequential"
_________________________________________________________________
Layer (type)                 Output Shape              Param #   
=================================================================
conv2d (Conv2D)              (None, 64, 64, 6)         60        
_________________________________________________________________
max_pooling2d (MaxPooling2D) (None, 32, 32, 6)         0         
_________________________________________________________________
conv2d_1 (Conv2D)            (None, 32, 32, 6)         330       
_________________________________________________________________
max_pooling2d_1 (MaxPooling2 (None, 16, 16, 6)         0         
_________________________________________________________________
conv2d_2 (Conv2D)            (None, 16, 16, 16)        880       
_________________________________________________________________
max_pooling2d_2 (MaxPooling2 (None, 8, 8, 16)          0         
_________________________________________________________________
conv2d_3 (Conv2D)            (None, 8, 8, 16)          2320      
_________________________________________________________________
max_pooling2d_3 (MaxPooling2 (None, 4, 4, 16)          0         
_________________________________________________________________
flatten (Flatten)            (None, 256)               0         
_________________________________________________________________
dense (Dense)                (None, 120)               30840     
_________________________________________________________________
dense_1 (Dense)              (None, 84)                10164     
_________________________________________________________________
dense_2 (Dense)              (None, 15)                1275      
=================================================================
Total params: 45,869
Trainable params: 45,869
Non-trainable params: 0
_________________________________________________________________
Epoch 1/20
  1/469 [..............................] - ETA: 0s - loss: 2.7182 - accuracy: 0.1250 12/469 [.
…
